hw1/model.npy (npy, 1360 bytes, 1 tensors)

array f8 [154, 1]
0	0xbfc13fdccb08c479	-0.13476142801076543
1	0x3fa7da36069b0dc8	0.046586693102223686
2	0xbfbbfc6b52ad3711	-0.10932036179039196
3	0x3fda9d16378189d7	0.4158378164339899
4	0x3fb66a2dccf187d2	0.08755766156676195
5	0x3fb31cb6059ce63e	0.0746568454459515
6	0x3fa552acb49fd467	0.041646382378453244
7	0xbfb28fc33b960b7f	-0.07250614361514172
8	0xbfa1265dcfb7e1a3	-0.03349583778976075
9	0xbf7ec966463ef7db	-0.007516288289421492
10	0xbf7558d953954f96	-0.005211686069134821
11	0xbfa45c20af9247a7	-0.03976537841039312
12	0x3fc0951d87ed3829	0.1295506395057953
13	0xbfd2cae6d2d27bac	-0.29363413417916706
14	0xbf53c93d7705676a	-0.0012076473468227386
15	0x3f4ff7f36a1cef7e	0.0009756029651053347
16	0x3fb4a4f3f452b44c	0.08064198222082658
17	0x3fb8d10523183af9	0.09693939310839629
18	0xbfa95b7f572fcc59	-0.049526194947156106
19	0xbfd72a4ac96ba75b	-0.361956307124833
20	0xbfd414919e5d3dbd	-0.3137554213071459
21	0xbfebacfe12ed70f8	-0.864867245643409
22	0x3f712535b6fecdd6	0.0041858766780253544
23	0x3fbae243b2aae34b	0.10501502143860113
24	0xbf9a94612635434a	-0.025956647831949987
25	0x3fa7ce68c733ac9b	0.04649665290511359
26	0xbf955e2642907cde	-0.02086696416165245
27	0xbf8107c2c46ce63a	-0.00831558381979668
28	0x3f9c30b7db27af50	0.027529595137749496
29	0x3fb7030121e8c156	0.08988959386693315
30	0xbfd28479a5ff42c8	-0.2893356438699297
31	0xbf517b576015bc33	-0.0010670045160983243
32	0x3f59f96018336e54	0.0015853346274558216
33	0x3fc828ccfd34b544	0.18874513972824947
34	0xbfd34332981273e5	-0.300976418025867
35	0xbf92145bfc728370	-0.01765578964534903
36	0xbfd2bba45c811557	-0.29270276101700204
37	0xbfda0a49d3a34b0b	-0.40687795322189463
38	0xbfd3e9556eb930d7	-0.311116560104677
39	0x3fb59c4ca319d91d	0.08441618902165655
40	0xbfa02ab7bd2757ee	-0.031575910415696615
41	0xbf6a053ea3f041d4	-0.0031763289875998777
42	0xbf90f7b44307b69c	-0.016569916335291354
43	0x3f9af7291d880e9e	0.026333467891176292
44	0x3fcb51534cce92ca	0.21341935396517037
45	0xbf93252a74becdcc	-0.018696463943070715
46	0xbfc63a74b75a0ca6	-0.1736589331886524
47	0xbfda8eee5b84f446	-0.414973821043365
48	0x3f2cba3ceb6c2359	0.00021917337081614021
49	0xbf3b793bce5e9e14	-0.00041921339140535527
50	0xbfa3befdafeaba3c	-0.038566520427924605
51	0xbf9c6c6cfc0c8a83	-0.027757361301278493
52	0x3fa32ad83dad29da	0.03743625405202851
53	0xbfbd15f75b5fd170	-0.11361642819230666
54	0xbfc45fe0c724ff80	-0.1591759655366296
55	0x3ff21918bb7377c8	1.1311271021181586
56	0xbfb3d46b3bfa08c9	-0.07746000494265383
57	0x3f79a1712f39cab7	0.006257478834970235
58	0x3f86a3f825b1587e	0.01105493416814007
59	0xbf0d32f9cd12cb91	-5.569290954934089e-05
60	0xbfa197598b5e9352	-0.03435783220564893
61	0xbfd10729c9be0ef1	-0.26606220914275897
62	0x3f924203a864ecae	0.017829949524849446
63	0xbfa53ca54657645d	-0.0414783142438828
64	0xbfb163430aae50e7	-0.06792086611523339
65	0x3f507650d43aeaff	0.0010047711702287352
66	0xbf3ab8bfc0de827b	-0.0004077404163301057
67	0x3fb6afb1ee44084e	0.08861839358363108
68	0x3f8f80a9fdf7711c	0.015382125914520865
69	0x3fb9e4d50797b4f1	0.1011479514633782
70	0x3fa27bee51db3b91	0.03610176800940857
71	0x3fa24183dd4b46c5	0.035656090510781925
72	0xbfeb7d9e4f6b08b1	-0.8590842772612374
73	0x3fae246e17663354	0.058871689182615455
74	0x3f7430ff8185b36f	0.004929540701010689
75	0xbf790fe962e5edd5	-0.00611869017154328
76	0xbf6305c3ae63ae98	-0.0023220846079448736
77	0xbfa144d02cc88ae8	-0.03372812792465202
78	0x3f6c124a12d147a2	0.0034266897915040265
79	0xbf77b14b5b511af2	-0.005784315454610877
80	0x3fca56c6b91d3e7d	0.2057732013586139
81	0xbf9b203b2fae14f1	-0.02649013975635212
82	0xbf1d6a78fa7af864	-0.00011221278566162087
83	0x3f3fd7bcd8e94df2	0.0004858814290049355
84	0xbfc592db29e2f7c3	-0.16854419274562646
85	0x3fb664470eac6d3c	0.08746761425247923
86	0xbfbb3f935e75529c	-0.10643883758650435
87	0x3f8fe1922eb71949	0.015566961336742085
88	0x3fe51de357036b97	0.6598984431724259
89	0x3fd329ac40209b9d	0.29941850912512696
90	0x3f878ccf4c4f79dc	0.011499042049703805
91	0xbf874df35fd7f28c	-0.011379147875225891
92	0xbfaae95c0586870b	-0.05256164138269356
93	0xbfa8f981807c3430	-0.04877857869551183
94	0x3fb11600409bcbb0	0.06674195840223152
95	0x3fe105be4d637c61	0.53195109477009
96	0xbfb4394a2bb1073f	-0.07899917189299986
97	0xbfc0e17e8f87b741	-0.13188154228503815
98	0x3fb39bffc8f096f8	0.07659910827404903
99	0x3f5a11193c756c61	0.0015909906813565066
100	0xbf5404688612a49a	-0.001221754144618259
101	0x3f7c6b3dbacc1c7b	0.006938210612822289
102	0xbfad2d094a37fdff	-0.056984224615003846
103	0xbfcacb5c22d40312	-0.209331051832145
104	0x3fb79839b17c09d9	0.09216652472608845
105	0x3fd977e7e4fde692	0.3979434715507547
106	0xbfe1a147489f3c86	-0.5509373110197806
107	0xbf7b188c7cdde37f	-0.006615208416285933
108	0xbfa8743ae10aefe5	-0.04776176449874451
109	0xbf9f015e4253911d	-0.03027865676712437
110	0xbf6e4bb70c485516	-0.0036982131152948445
111	0xbfaf0f93da1f4faf	-0.060665722252138614
112	0xbfe2f635ffbeafa0	-0.5925550456063213
113	0x3fa8076377761c5a	0.04693137009876898
114	0xbfc8ef504c76b797	-0.19480327352124213
115	0x3fc4c8a0d19cdf17	0.16237268671988467
116	0x3f39b6d6312b3901	0.0003923676423881612
117	0x3f18773d814cd314	9.332955262382161e-05
118	0xbfa70e2225641e64	-0.04502970415529431
119	0x3fb0ef36dabfd0fa	0.06615012016829161
120	0x3fbc69a3de212490	0.110986940127207
121	0x3fe1e181e7a31573	0.5587777637635284
122	0x3fde38a1fcc1fd20	0.4722065895402512
123	0xbfd302e82afd4d59	-0.2970524234599075
124	0x3f87796d83043556	0.0114620738609356
125	0x3fa057de787fbd31	0.03192038746771642
126	0xbf9d98f937eeae21	-0.02890386012920321
127	0xbfa7e61c6eac0485	-0.04667748309112433
128	0xbfa7928ce6718ad3	-0.04603996575385385
129	0x3f77360ccb934372	0.005666780453979269
130	0xbfbfc211918ecbd4	-0.1240550022474019
131	0xbfc9366db9cc44ca	-0.1969735295502118
132	0x3fde248fdcac2dfd	0.4709815649991638
133	0xbf533cb0dd5a5b6a	-0.0011741378015465939
134	0xbf2f5e6ff345f32b	-0.00023932568150177835
135	0xbfb60c36c8618d4f	-0.08612387077441962
136	0x3fc3b96f80f2835a	0.15409654423003866
137	0x3fb6633f95829fc6	0.0874519100203762
138	0x3feb6be540ae04af	0.8569208396221678
139	0x3ff3a3f083761e57	1.2275242934428172
140	0xbfdc844b7595e9ff	-0.445574631528558
141	0xbf99acd816d39221	-0.025073410409179545
142	0x3fb590bcf80a6a6f	0.08423977904969047
143	0x3fa90b6e22b9d40f	0.04891533063793229
144	0x3fbbd07708fd588d	0.10864967317079018
145	0x3fc3645bcee75747	0.151500202204881
146	0x3fef580aaed31cdb	0.9794972815078852
147	0x3fc1e061bd5c1012	0.13966008897853094
148	0x3fe3bff1495ea5b4	0.6171804841043724
149	0x3fe87272cff4c224	0.7639707624094325
150	0xbf54673840f666cd	-0.00124531262904386
151	0x3f49046603b7d244	0.000763463794497606
152	0xbfb28265c6a7f212	-0.07230220890046038
153	0x3fb0cc6d7292cea2	0.06561931655124423
