hw2/model_w_best.npy (npy, 864 bytes, 1 tensors)

array f8 [92, 1]
00000000: 028a a0b9 1f34 51c0 d381 6d29 9fb4 83c0
00000010: 90e5 8391 0df5 2f40 9207 d16b c132 55c0
00000020: bae8 8ec5 8392 5840 f8c9 8711 4967 6240
00000030: 14bd 4aac dca5 5640 d486 1879 13f5 2f40
00000040: 8a4f 65fd 459d 5dc0 6082 324e bfef 7ac0
00000050: 0442 413c 4711 6040 6058 0f7b a208 35c0
00000060: 206c 07b6 2ba2 1c40 e7c9 9e07 c55e 6440
00000070: 095f bdf2 d13c 6bc0 7ca3 fb37 3754 2cc0
00000080: ee25 5c0b 75c5 82c0 426f 27b8 7d18 8440
00000090: ca6e 53ca feee 85c0 0670 ca81 4466 83c0
000000a0: 907f b848 2919 8b40 8aa3 75cb 40ee 84c0
000000b0: 9a9f 96e9 4bfc 7a40 34ca afdf 4b6b 6340
000000c0: 4036 1e02 f4f8 6640 3a23 82d4 cf3b 7240
000000d0: ce25 43ca fa44 48c0 622f 2211 d565 68c0
000000e0: ac7b f954 7b15 3c40 aa10 cf14 ee05 47c0
000000f0: 416a 8998 27d4 55c0 bdb0 eadf 8ffe 4240
00000100: 7646 5dc8 96ad 81c0 34ca afdf 4b6b 6340
00000110: 17ad 6b4c 6848 6f40 48c8 9222 6033 7940
00000120: 5891 6db2 60bc 48c0 0000 0000 0000 0000
00000130: c04f db93 abdd 4dc0 42cf fff6 9f55 4440
00000140: 9d09 86b5 6a47 5940 4918 195a f9ba 6c40
00000150: 7245 d094 6db0 56c0 967a e5b3 8e90 6ec0
00000160: f6d4 3d9f 91af 55c0 926f 6e17 5eab 61c0
00000170: 4040 7342 ffc7 6440 704a d097 1a32 5940
00000180: 80dc eba6 b717 55c0 55c5 2650 0372 4c40
00000190: c6cd 7a1d 85c9 3f40 88a2 34dd 2c79 53c0
000001a0: 9055 1b4f 732e 29c0 ccf7 2eba 8a36 53c0
000001b0: 0eea ffae b6aa 43c0 5114 f8ee 8812 72c0
000001c0: f176 f1ce c773 8040 92b3 4eaf 1443 6ec0
000001d0: c996 4ca5 dafa 4a40 0000 0000 0000 0000
000001e0: 930a d5dd 4263 60c0 4cac cd87 5f13 5840
000001f0: 4e7a 7967 1867 67c0 360e f237 4cd1 67c0
00000200: b0a5 9c68 e3e5 76c0 1d36 5a55 2698 5640
00000210: 61c3 e49e 59e7 7a40 2985 f277 16a7 4340
00000220: 74a8 f8fb d700 5840 c996 4ca5 dafa 4a40
00000230: fc0e 4fe4 ea1e 6ac0 6ba7 2fce 3820 4ac0
00000240: d6fe e528 f4d0 68c0 e851 20ce 9362 61c0
00000250: 64e5 a0e6 38a9 6ec0 6f10 79de 3e4d 7840
00000260: ab5d 137c bf17 6d40 c5dc 03d3 f990 35c0
00000270: e083 73e1 aa55 5e40 c996 4ca5 dafa 4a40
00000280: 0e19 3c9d 4e03 6e40 d8ab f5f1 f670 7140
00000290: d00f 5fd5 206d 0940 45ee 44f4 49b8 55c0
000002a0: f0c2 ec36 df91 0c40 77c7 2e3d f531 6fc0
000002b0: 9017 f704 7640 80c0 0a81 fd7d 59fa 77c0
000002c0: 2a98 fbeb 3ada 72c0 cc82 acb3 e191 1340
000002d0: 07d9 55ba 0dfe 77c0 28eb 3b77 ebda 70c0
-68.81443634679457 -630.5777157359356 15.978619143820453 -84.79305549061817 98.2892927070233 147.2276694919708 90.59159381197634 15.978664192432383
-118.4573968400347 -430.9842054341334 128.53994572396925 -21.03372925877227 7.158369869425798 162.96155148518957 -217.9006284426362 -14.16448378512154
-600.6821505736423 643.0613864022091 -701.8744093435464 -620.7834506812512 867.145158234971 -669.78163806825 431.7685333141068 155.3530119355579
183.7797861661984 291.73823977313043 -48.53890350607581 -195.18225914646888 28.083913145932158 -46.04632816420174 -87.31491673869552 37.98876570662967
-565.6986243521812 155.3530119355579 250.26273175268645 403.2109704717336 -49.471700957775 0.0 -59.731798631749825 40.66894423952773
101.11588800515752 229.84293846989956 -90.7566883119487 -244.517419765664 -86.74326306379575 -141.3552357823324 166.2499096156116 100.78287310925384
-84.37058423074086 56.89072610753161 31.7871874260725 -77.89336328640104 -12.590723487936685 -76.85221724116053 -39.3337000608045 -289.15843102365494
526.4725626816199 -242.09627499934555 53.95979753722856 0.0 -131.10191241845732 96.30270571789987 -187.22172902799724 -190.54055402065723
-366.36801968756026 90.37733968553262 430.4593800483763 39.305373185556455 96.01318263323793 53.95979753722856 -208.96617331925506 -52.25173356367926
-198.52980465813624 -139.08054262459268 -245.28819590973865 388.8278488854475 232.7421245935669 -21.56631201595589 121.33855472832465 53.95979753722856
240.10334645974984 279.06028934445703 3.1782852811465787 -86.8795138047363 3.5712265292171352 -249.56118640076213 -520.0576266578737 -383.64684866929076
-301.6393852069765 4.892462546734077 -383.8783515313557 -269.68248675733275
